CNN
模型结构

Found 272 files belonging to 10 classes.
Model: "sequential"
_________________________________________________________________
Layer (type)                 Output Shape              Param #
=================================================================
rescaling (Rescaling)        (None, 300, 300, 3)       0
_________________________________________________________________
conv2d (Conv2D)              (None, 298, 298, 32)      896
_________________________________________________________________
max_pooling2d (MaxPooling2D) (None, 149, 149, 32)      0
_________________________________________________________________
conv2d_1 (Conv2D)            (None, 147, 147, 64)      18496
_________________________________________________________________
max_pooling2d_1 (MaxPooling2 (None, 73, 73, 64)        0
_________________________________________________________________
conv2d_2 (Conv2D)            (None, 71, 71, 128)       73856
_________________________________________________________________
max_pooling2d_2 (MaxPooling2 (None, 35, 35, 128)       0
_________________________________________________________________
flatten (Flatten)            (None, 156800)            0
_________________________________________________________________
dense (Dense)                (None, 128)               20070528
_________________________________________________________________
dropout (Dropout)            (None, 128)               0
_________________________________________________________________
dense_1 (Dense)              (None, 10)                1290
=================================================================
Total params: 20,165,066
Trainable params: 20,165,066
Non-trainable params: 0
_________________________________________________________________

9/9 [==============================] - 7s 140ms/step - loss: 1.5014 - accuracy: 0.6287
测试准确度 : 0.6286764740943909

准确度acc: 0.6286764705882353
精确度p: 0.682962764739156
召回率r: 0.6288217338217339
…
